pytorch/outputs/model.pt (torch, 79348 bytes, 6 tensors)

fc1.weight f4 [128, 84]
0	0xbd683185	-0.05668785
1	0x3d5b1e07	0.053495433
2	0x3dd513c9	0.10404164
3	0x3dc3012d	0.09521709
4	0xbdc29869	-0.09501726
5	0x3dae7209	0.08517844
6	0xbc4d7958	-0.012541138
7	0xbd78fca8	-0.060787827
8	0x3da5f181	0.08102704
9	0xbc2f884e	-0.01071365
10	0xbdfb9ab9	-0.122853704
11	0xbdf83516	-0.121195
12	0xbbe8c1ce	-0.0071031814
13	0xbd39d50f	-0.045369204
14	0xbd304421	-0.043033723
15	0x3d19c220	0.037538648
16	0xbd77f75c	-0.060538635
17	0xbda12efe	-0.07870291
18	0xbbe153b1	-0.006876432
19	0xbcbc2af8	-0.022969708
20	0x3dbec02e	0.09313999
21	0x3d84efb3	0.064910315
22	0x3dafdb88	0.08586794
23	0x3d115021	0.035476808
24	0xbcf216b6	-0.029551845
25	0x3d592571	0.053014223
26	0x3dbdcda2	0.09267737
27	0xbd2f2a3f	-0.0427649
28	0x3da1141c	0.07865164
29	0xbcfd3340	-0.030908227
30	0x3d1bf671	0.03807682
31	0xbd60e06e	-0.054901533
32	0x3d9248c1	0.07142783
33	0xbc860bca	-0.016363043
34	0xbc87a43d	-0.016557807
35	0xbc46d697	-0.012136123
36	0xbd8234fd	-0.06357763
37	0xbdb31952	-0.08745064
38	0xbdc6bd70	-0.09704101
39	0xbdbe1967	-0.09282189
40	0x3c8aea2b	0.016957363
41	0xbddec76f	-0.10877883
42	0x3b56547d	0.0032704168
43	0xbce3a489	-0.027788417
44	0x3da565d3	0.08076062
45	0xbd733058	-0.059372276
46	0x3c74592b	0.014913837
47	0xbdebe0fc	-0.11517522
48	0x3dc32ade	0.09529661
49	0xbd0c7f4e	-0.034301095
50	0x3ce33a3d	0.027737731
51	0xbd12a382	-0.035800464
52	0x3d9bb506	0.07602887
53	0xbcd46e4e	-0.025931504
54	0xbcf7d8c4	-0.03025473
55	0x3d980982	0.074236885
56	0xbdfa805a	-0.12231512
57	0x3d3ca639	0.04605696
58	0x3d2d1028	0.042251736
59	0x3d8b00e4	0.06787279
60	0xbde88b9c	-0.113547534
61	0x3b94de40	0.004543096
62	0x3dc40e3e	0.09573029
63	0x3cdc51a8	0.026894405
64	0x3dd08c80	0.10183048
65	0x3d46dd16	0.048550688
66	0x3d344d6a	0.04401914
67	0xbd1b4657	-0.03790888
68	0x3bd117a3	0.0063809915
69	0xbd0927be	-0.033485167
70	0x3d602dff	0.054731365
71	0xbdd0d8a7	-0.10197573
72	0xbcda19b3	-0.026623582
73	0xbdc11848	-0.094284594
74	0x3da335ea	0.07969268
75	0xbd865a5b	-0.06560203
76	0x3c4e876c	0.012605529
77	0x3d5c406d	0.05377238
78	0xbbb834eb	-0.0056215427
79	0xbcfbe087	-0.030746711
80	0xbd803f45	-0.06262068
81	0x3d1ae4ac	0.037815735
82	0x3d3d4dae	0.04621666
83	0x3c8a8761	0.016910257
84	0xbcbe7181	-0.023247482
85	0xbdc8f4d9	-0.09812326
86	0xbe018f36	-0.12652287
87	0xbdb962ed	-0.09052072
88	0x3d2bb57c	0.041921124
89	0x3d8fa0b1	0.07013071
90	0xbd8fc1ce	-0.07019387
91	0xbdae5666	-0.08512573
92	0x3bd9b886	0.0066443114
93	0x3cf05281	0.029336216
94	0xbd74da5f	-0.059778567
95	0xbd96f9f5	-0.07371894
96	0xbda11ed9	-0.07867212
97	0xbcdcfe84	-0.026976831
98	0xbdefa140	-0.11700678
99	0xbd238592	-0.039922304
100	0x3d290d59	0.041272495
101	0xbdd063d0	-0.10175288
102	0xbbd532ac	-0.0065062847
103	0x3c0cec26	0.008601224
104	0xbd52ce39	-0.0514662
105	0x3d8dfbad	0.06932769
106	0xbbc370ad	-0.0059643597
107	0x3d7350b8	0.05940315
108	0x3cf4eb79	0.029897438
109	0x3dbd0420	0.092293024
110	0x3d841659	0.06449575
111	0x3c48a57a	0.012246484
112	0xbdd07c99	-0.10180015
113	0xbc114799	-0.008867168
114	0xbd912a11	-0.07088102
115	0x3da83c41	0.082146175
116	0xbd635b88	-0.055507213
117	0x3d8ac584	0.06775954
118	0x3e0da61e	0.138329
119	0x3c93b594	0.01803092
120	0x3dd8d93f	0.105883114
121	0xbcd6cac2	-0.02621973
122	0xbcb5cbda	-0.02219193
123	0x3bef40e4	0.0073014367
124	0xbc813690	-0.015773088
125	0x3d0ac36e	0.033877783
126	0xbd43a099	-0.04776058
127	0xbdc2565a	-0.094891265
128	0x3da53f6c	0.080687374
129	0xbcf78a81	-0.030217411
130	0x3ccc9b5c	0.024976425
131	0xbda82fb0	-0.08212221
132	0x3d926604	0.07148364
133	0xbd5fdb40	-0.054652452
134	0xbd956b60	-0.07295871
135	0xbd9606f5	-0.07325546
136	0xbd96185a	-0.073288634
137	0xbcd949fa	-0.026524533
138	0x3b37f21d	0.0028067895
139	0xbd8076c8	-0.06272656
140	0xbb3d6258	-0.0028897729
141	0x3db840c2	0.089967266
142	0xbd84514c	-0.06460819
143	0x3d3d89ef	0.04627412
144	0xbda9600a	-0.08270271
145	0x3d34e2f1	0.04416174
146	0xbd0be8d0	-0.034157574
147	0xbd095c88	-0.03353551
148	0xbc94a0aa	-0.018143017
149	0x3c205b7a	0.009787435
150	0xbdb77b26	-0.089590356
151	0xbd73304f	-0.059372243
152	0xbd3e99f5	-0.046533544
153	0xbdacda63	-0.084400915
154	0xbd8ed2c2	-0.069737926
155	0x3d834454	0.06409517
156	0x3d855eb1	0.065122016
157	0x3c9146d2	0.017733965
158	0x3d999fbc	0.0750117
159	0xbcc135ad	-0.023585165
160	0x3b11325d	0.0022155263
161	0x3dd84fdc	0.10562107
162	0xbd8f0dde	-0.06985067
163	0x3dde71dd	0.108615614
164	0x3d52f006	0.051498435
165	0xbdc3ac60	-0.09554362
166	0xbce4b3e3	-0.027917808
167	0xbda6a764	-0.08137396
168	0x3d0cc291	0.03436524
169	0xbd740dcd	-0.059583474
170	0x3dc8fc51	0.098137505
171	0x3c98f482	0.018671278
172	0xbda9d6f7	-0.082929544
173	0x3dbbc84d	0.09169064
174	0x3d117fd7	0.03552231
175	0x3d2167ef	0.03940576
176	0x3dea8a50	0.11452162
177	0xbbda1b2a	-0.0066560702
178	0x3d4b1cc9	0.049588
179	0x3cbc5788	0.022990957
180	0xbd57ec26	-0.052715443
181	0x3ddc169a	0.107464984
182	0x3d9dc2b1	0.0770315
183	0xbce734bd	-0.02822339
184	0xbdbab6ba	-0.091168836
185	0x3dbe763f	0.092998974
186	0xbdc8d48a	-0.098061636
187	0x3cd15f35	0.025558094
188	0x3df400c3	0.11914208
189	0xbdad32a7	-0.08456927
190	0xbd180cb4	-0.03712149
191	0xbc8787bc	-0.016544215
192	0x3dcb6536	0.09931414
193	0xbd66bc46	-0.056331895
194	0xbddb24c1	-0.107003696
195	0xbd8c286c	-0.06843647
196	0x3cc43e9b	0.023955634
197	0xbd997d28	-0.07494575
198	0xbdb738ba	-0.089463666
199	0x3dc3067c	0.09522721
200	0xbd99da2e	-0.075123176
201	0xbab666d3	-0.0013916142
202	0x3af48543	0.0018655438
203	0x3c7792ca	0.015110681
204	0xbdb9f0e6	-0.09079151
205	0x3d71c23b	0.059023123
206	0x3dba5d45	0.09099821
207	0xbda4bb87	-0.080435805
208	0x3cd2f7a4	0.02575285
209	0xbb83884b	-0.00401405
210	0xbd46840e	-0.04846578
211	0x3d3e9bd0	0.046535313
212	0x3cad323c	0.021142118
213	0xbd0454a4	-0.032307282
214	0x3d63fca4	0.05566086
215	0x3d89ff95	0.067382015
216	0x3d8d897c	0.06910989
217	0x3d6910e8	0.05690089
218	0xbd9bfa6f	-0.07616126
219	0x3dda4af7	0.1065883
220	0x3bcd9b4d	0.006274617
221	0x3d723d90	0.05914074
222	0x3da9d784	0.082930595
223	0x3d8dac0d	0.06917582
224	0x3dfb0c53	0.1225821
225	0xbd979360	-0.074011564
226	0x3c4313b1	0.01190655
227	0xbd4d74ff	-0.050160404
228	0x3e0698bf	0.13144206
229	0xbd297c1a	-0.041378118
230	0x3d97bb52	0.074087754
231	0x3c9f2218	0.019425437
232	0xbd29fadd	-0.041499007
233	0x3e04fe5e	0.12987658
234	0x3d9dfd62	0.077143446
235	0x3d7bca4f	0.061472233
236	0xbd9c6481	-0.07636357
237	0x3d33ed04	0.043927208
238	0x3d68aa48	0.056803018
239	0x3dd479d4	0.10374799
240	0x3db0d74c	0.086348146
241	0xbd954f9b	-0.07290574
242	0xbd8b2d38	-0.06795734
243	0xbdabdead	-0.083920814
244	0x3ae149c7	0.0017188125
245	0xbd991255	-0.074742
246	0xbdb0d028	-0.08633453
247	0x3c02687e	0.007959483
248	0x3d209f17	0.03921422
249	0x3de60db3	0.11233082
250	0x3d1e936a	0.038714804
251	0x3c842098	0.016128823
252	0xbdbf94e3	-0.0935457
253	0xbd0df975	-0.03466173
254	0x3c8725ea	0.016497571
255	0x3d4dab80	0.050212383

fc1.bias f4 [128]
0	0x3c0f8651	0.008760051
1	0x3d8c9278	0.06863874
2	0x3d8f72d0	0.070043206
3	0x3d88d18c	0.06680593
4	0xbc8e8848	-0.017398968
5	0xbdbfe3ad	-0.093695976
6	0xbdab0d14	-0.08352104
7	0xbd8fbf26	-0.070188805
8	0x3dd5ede7	0.10445767
9	0xbdf2bcd9	-0.11852426
10	0xbc61ab7e	-0.013773797
11	0xbda200fc	-0.07910344
12	0x3d556d64	0.052106276
13	0xbc921308	-0.01783134
14	0x3c9216c4	0.017833121
15	0x3db7e2f5	0.089788355
16	0x3b3600b1	0.0027771408
17	0xbda3e736	-0.08003084
18	0xbdb3c4fc	-0.08777806
19	0x3d528bc7	0.051402833
20	0xbd9dd9ae	-0.07707535
21	0xbdb4944e	-0.088173494
22	0x3e033e9f	0.12816857
23	0xbd10553e	-0.035237543
24	0x3acef890	0.001579063
25	0xbceb8f82	-0.028754953
26	0xbd61e67a	-0.05515144
27	0xbc63c5cc	-0.013902139
28	0xbd8a32ed	-0.067479946
29	0x3d86db53	0.065848015
30	0xbd0493a8	-0.03236738
31	0xbdb70cac	-0.08937964
32	0xbc771a84	-0.015082005
33	0xbda237b8	-0.07920784
34	0xbd062b7d	-0.032756317
35	0xbd0d5b53	-0.03451092
36	0x3d698359	0.05701003
37	0xbce1a14e	-0.027542736
38	0xbdfd51f3	-0.12369146
39	0x3dd4d133	0.10391464
40	0xbcafa9ab	-0.021443209
41	0xbd6454b0	-0.055744827
42	0xbc3681ee	-0.011139376
43	0x3ca3029d	0.019898707
44	0xbcaa3e00	-0.020781517
45	0xbd45043c	-0.04809974
46	0xbdb4f1b1	-0.088351615
47	0x3c05e589	0.008172401
48	0x3e05c220	0.13062334
49	0xbde20743	-0.11036541
50	0xbddabefb	-0.10680958
51	0xbdd4e2bb	-0.10394808
52	0xbd84d657	-0.064861946
53	0x3b4c18ee	0.003114279
54	0xbdb8aa60	-0.090168715
55	0x3dedeb21	0.11617113
56	0x3d6fc7b4	0.05854006
57	0xbd4cbfe0	-0.049987674
58	0xbd5a62f9	-0.053317044
59	0xbd250ea9	-0.040297184
60	0x3cd3a45f	0.025835214
61	0x3d36a53a	0.044591166
62	0xbd4dfb0f	-0.050288256
63	0xbdab97c1	-0.08378554
64	0x3d643aad	0.05572002
65	0xbd7d7b16	-0.061884962
66	0xbdb426e7	-0.087964825
67	0x3d8a4704	0.067518264
68	0xbd6ed8cd	-0.058312226
69	0xbd550552	-0.052007027
70	0xbd916fe0	-0.071014166
71	0x3d9f815d	0.07788346
72	0xbcd09495	-0.025461474
73	0xbd118343	-0.03552557
74	0x3cfda127	0.030960632
75	0xbde0091e	-0.10939239
76	0xbdd54c08	-0.104148924
77	0x3cfa8902	0.030582909
78	0xbd43d499	-0.04781017
79	0x3de8985e	0.11357187
80	0xbd8807a5	-0.06642083
81	0xbdcf9f8b	-0.10137852
82	0x3d8ec8bc	0.06971881
83	0x3ca4b9ae	0.02010807
84	0x3c7d8283	0.015473011
85	0xbdc83f1a	-0.09777661
86	0x3d7accc4	0.061230436
87	0x3d954602	0.072887436
88	0xbc36c81e	-0.01115611
89	0xbdd49f14	-0.10381904
90	0x3d8fd5c7	0.07023197
91	0x3d9d0b98	0.07668227
92	0x3dfb7531	0.12278212
93	0x3dc60a29	0.09669907
94	0xbccae469	-0.024767118
95	0x3d39a812	0.0453263
96	0x3c7ca756	0.015420755
97	0xbcd8f96c	-0.026486121
98	0xbdacc3f2	-0.08435811
99	0x3e0eba6e	0.13938305
100	0xbd08ab20	-0.033366323
101	0xbd414d30	-0.047192752
102	0xbda103a4	-0.078620225
103	0xbda5ad39	-0.0808968
104	0x3cd21977	0.025646908
105	0x3d4d35da	0.050100185
106	0x3dd4efe3	0.10397317
107	0x3ccb6796	0.024829667
108	0x3dd262f6	0.102727816
109	0xbd3f989e	-0.046776406
110	0x3c08e33e	0.00835496
111	0xbd209fed	-0.039215017
112	0x3da2daf6	0.0795192
113	0x3d115ed1	0.035490815
114	0xbd05fde4	-0.032712832
115	0x3db34af8	0.087545335
116	0x3dde12b7	0.10843413
117	0x3dc577f4	0.0964202
118	0x3df12853	0.11775269
119	0x3dda27ba	0.106521085
120	0x3d9d1627	0.07670241
121	0x3d5bf90a	0.0537043
122	0x3dd8de0e	0.105892286
123	0xbd87358b	-0.066020094
124	0xbdad0025	-0.08447293
125	0x3db29743	0.08720257
126	0xbcc5c879	-0.024143444
127	0xbdae993c	-0.08525321

fc2.weight f4 [64, 128]
0	0x3cd93471	0.026514264
1	0xbd36c186	-0.044618152
2	0x3d4ac404	0.04950334
3	0xbda234fd	-0.07920263
4	0x3da2436d	0.07923017
5	0x3ce0ed2a	0.027456839
6	0xbc7d76ad	-0.015470189
7	0x3d331726	0.043723248
8	0xbc06d0ac	-0.008228462
9	0xbd110469	-0.035404596
10	0xbcdee584	-0.027209051
11	0x3db6e3cf	0.0893017
12	0xbd3e2dc0	-0.04643035
13	0xbcddf758	-0.027095482
14	0xbd664473	-0.056217622
15	0x3d4a2168	0.049348265
16	0x3d942b06	0.072347686
17	0xbd938997	-0.072039776
18	0xbcf0fe8a	-0.029418249
19	0x3cc8a7c3	0.024494058
20	0xbd9c872d	-0.0764297
21	0xbba40269	-0.00500517
22	0xbd43b758	-0.047782272
23	0xbd2eaf96	-0.04264792
24	0x3bae8dbd	0.005326955
25	0x3d18e42a	0.03732697
26	0x3b8bda25	0.004267948
27	0xbd5924fa	-0.05301378
28	0x3d0ba0aa	0.034088768
29	0x3d3c0e75	0.045912225
30	0x3d0e93ae	0.034808807
31	0x3b29a46f	0.0025885364
32	0xbd87df3b	-0.06634375
33	0xbc77bc54	-0.0151205845
34	0x3cbd60f5	0.023117522
35	0x3d95152f	0.07279431
36	0x3d37046f	0.044681963
37	0xbd08d1f8	-0.033403367
38	0xbca05b6e	-0.019574847
39	0xbca5a762	-0.020221416
40	0xbbdb8029	-0.0066986275
41	0xbc74f946	-0.01495201
42	0x3d722c83	0.05912448
43	0x3d5c851e	0.053837888
44	0xbd63d170	-0.055619657
45	0x3cf38d5c	0.029730491
46	0xbceded81	-0.029043915
47	0x3db2e3f2	0.08734883
48	0xbd830cc0	-0.06398916
49	0x3b09d27f	0.0021030006
50	0x3ce46076	0.027878027
51	0x3ceb9a9d	0.028760249
52	0x3ce775fa	0.028254498
53	0xbc46b215	-0.012127419
54	0x3c910a90	0.017705232
55	0x3a9e1f5f	0.0012063793
56	0xbd813bef	-0.063102596
57	0x3ac8baef	0.00153145
58	0xbd834cc7	-0.064111285
59	0x3bc7553e	0.0060831597
60	0xbbf3141a	-0.007418168
61	0xbd23c456	-0.039982162
62	0x3d713335	0.058886725
63	0x3d7add34	0.061246112
64	0xbdc5924e	-0.09647046
65	0xbd847420	-0.064674616
66	0x3c719143	0.014744106
67	0xbcf0c4b7	-0.029390676
68	0x3ccf5b97	0.025312228
69	0xbd99b611	-0.075054295
70	0x3b07ea21	0.0020738917
71	0x3cda970c	0.026683353
72	0xbd546535	-0.05185433
73	0xbb32dbcb	-0.0027291651
74	0xbdb3d133	-0.08780136
75	0xbc443220	-0.011974841
76	0x3cc19c03	0.023633962
77	0x3bbb57a3	0.005717234
78	0x3d0bc00c	0.034118697
79	0xbd184e17	-0.037183847
80	0x3d1c655d	0.038182605
81	0xbd4603af	-0.048343357
82	0x3dd4b937	0.103868894
83	0xbd98201c	-0.074279994
84	0x3aa6eaa7	0.0012734727
85	0x3d8b144c	0.06790981
86	0xbcec60a4	-0.028854676
87	0x3c975865	0.018474767
88	0xbd00ba11	-0.031427447
89	0xbd5c19b6	-0.053735457
90	0x3daae750	0.083449006
91	0xbdbdffaa	-0.0927728
92	0x3c510183	0.012756708
93	0x3ccc17f1	0.02491376
94	0xbc9b329b	-0.018945029
95	0x3d116dfa	0.035505272
96	0x3bd45967	0.006480384
97	0x3c24298a	0.010019669
98	0x3d2f1765	0.04274692
99	0xbd7f4321	-0.06231988
100	0xbce339b9	-0.027737485
101	0xbd88e2c6	-0.066838786
102	0xbc04ab9d	-0.008097556
103	0xbcb55884	-0.022136934
104	0xbd3b9356	-0.045794807
105	0xbdae07c5	-0.08497576
106	0xbd2bcf71	-0.04194588
107	0x3d18cadd	0.03730284
108	0x3da9e04f	0.082947366
109	0x3cd20098	0.025635049
110	0xbda91ffa	-0.08258052
111	0xbd02fa43	-0.03197695
112	0x3c569f87	0.013099558
113	0x3d194298	0.037417024
114	0x3db58327	0.08862906
115	0x3d7ab2bd	0.061205614
116	0xbc32d3fe	-0.010914801
117	0xbd765cf0	-0.060147226
118	0x3d068af8	0.032847375
119	0xbce3eb11	-0.02782205
120	0xbdc0e0b8	-0.09417862
121	0xbbd85d11	-0.0066028913
122	0xbcf1a080	-0.029495478
123	0xbc8d4157	-0.01724307
124	0x3d13568f	0.03597122
125	0xbca2e5f6	-0.019885045
126	0x3d0bf426	0.034168385
127	0x3d8de8ae	0.06929146
128	0xbcb71c02	-0.022352222
129	0xbdb3ba25	-0.087757386
130	0x3a05fd5a	0.00051112997
131	0x3c1c3fb0	0.009536669
132	0x3d2104ff	0.039311405
133	0x3d053743	0.032523405
134	0x3c959f0c	0.018264316
135	0x3def79a2	0.116931215
136	0x3c07b183	0.008282068
137	0xbd2b7eac	-0.04186885
138	0xbc956f58	-0.01824157
139	0x3d66851b	0.056279283
140	0x3d74b863	0.059746157
141	0xbdbcd62a	-0.09220536
142	0xbd4322c8	-0.04764059
143	0x3d4e0eca	0.050307073
144	0x3d9f919d	0.077914454
145	0xbd393b39	-0.045222495
146	0x3d800968	0.06251794
147	0xbb46b0d9	-0.0030317812
148	0x3d9bcf8a	0.07607944
149	0x3bddf9cb	0.0067741624
150	0xbde22936	-0.110430166
151	0xbd8ce474	-0.068795115
152	0xbaf4ee0a	-0.0018686664
153	0x3cd91bc0	0.02650249
154	0xbcfa171a	-0.030528594
155	0x3bbc65e8	0.005749453
156	0x3d60d896	0.054894052
157	0x3cf10bec	0.02942463
158	0x3d88bfdd	0.0667722
159	0x3d80f467	0.06296616
160	0x3c182f1b	0.009288575
161	0xbbc9658f	-0.00614614
162	0x3d436bff	0.047710415
163	0x3c1f9bde	0.0097417515
164	0xbd0f5527	-0.034993317
165	0xbd023f8b	-0.03179888
166	0xbd9dccce	-0.07705079
167	0x3c8c2959	0.01710956
168	0xbb887bb0	-0.0041651353
169	0x3d453f9d	0.04815637
170	0xbdc314ed	-0.09525476
171	0x3bb6e226	0.005581158
172	0x3d55fdc5	0.052243967
173	0xbc8fe314	-0.017564334
174	0x3cefab73	0.029256558
175	0xbd07681f	-0.033058282
176	0xbd3d435c	-0.046206817
177	0xbd955eb8	-0.07293457
178	0x3c1dc7c1	0.009630145
179	0xbd87bbea	-0.06627639
180	0xbd4bfd48	-0.049802095
181	0x3d7f8219	0.06237993
182	0xbd044d32	-0.03230018
183	0x3d55f4c0	0.052235365
184	0xbdd0ab98	-0.10188979
185	0xbdc0c9e4	-0.094135076
186	0x3d2c1ca5	0.042019505
187	0x3d7c9054	0.06166108
188	0x3da0adce	0.078456506
189	0xbdc9b7e0	-0.098495245
190	0x3d8fbb73	0.07018175
191	0x3d375569	0.044759188
192	0xbb2c575c	-0.0026297187
193	0x3c1c9157	0.009556136
194	0x3d24d098	0.040237993
195	0x3d806b53	0.062704705
196	0xba7eb602	-0.00097164523
197	0xbdbd81cb	-0.09253272
198	0xbc7db6a8	-0.015485443
199	0x3cd0ff5c	0.02551239
200	0xbd50bcd3	-0.050961327
201	0xbc114b2a	-0.008868018
202	0xbd0695a5	-0.032857556
203	0x3cf9741f	0.030450879
204	0x3c2b2d54	0.010447819
205	0x3c881f45	0.016616473
206	0x3c69768a	0.014249453
207	0xbd245488	-0.040119678
208	0xbd9cb12a	-0.07650979
209	0xbd8fcc80	-0.07021427
210	0xbc9ecffa	-0.01938628
211	0x3d7a35e7	0.06108656
212	0x3d9fbe3b	0.077999555
213	0xbdc2f277	-0.09518903
214	0x3da7acbd	0.08187244
215	0xbc042c8e	-0.008067263
216	0x3d405b59	0.046962116
217	0x3d69619c	0.056977853
218	0xbdfb873b	-0.122816525
219	0xbc0177dd	-0.007902113
220	0x3d3a8108	0.04553321
221	0x3bec7a3e	0.007216721
222	0xbdc3e403	-0.09564974
223	0xbd53296c	-0.051553175
224	0xbca3be4c	-0.019988202
225	0xbd2080b8	-0.039185256
226	0xbdd5f3a9	-0.10446865
227	0x3cc00259	0.02343862
228	0xbd93f111	-0.07223714
229	0x3c841ca6	0.016126942
230	0x3d4498bc	0.04799722
231	0xbd6881e5	-0.056764502
232	0x3c1be66d	0.009515387
233	0xbd229b70	-0.039699018
234	0xbd4ccdab	-0.050000828
235	0x3c67c141	0.014145196
236	0xbd5b4755	-0.053534824
237	0x3d1e1ff5	0.038604695
238	0x3aa2fd6e	0.0012435147
239	0xbaf87d6a	-0.0018958275
240	0xbdb1345b	-0.08652564
241	0x3d47e82f	0.048805412
242	0xbd75cf00	-0.060011864
243	0xbc605750	-0.013692692
244	0xbd6b2ec2	-0.05741764
245	0x3dc6ccab	0.09707006
246	0x3cf5e3ef	0.030015914
247	0x3d1b1ab0	0.037867248
248	0x3d8dc88d	0.06923018
249	0xbdf2ac02	-0.11849214
250	0xbda547c1	-0.080703266
251	0x3cf62bcf	0.030050186
252	0x3d4df7e1	0.050285224
253	0xbdae9d3a	-0.08526082
254	0xbd73adab	-0.059491795
255	0x3c86c0f4	0.01644943

fc2.bias f4 [64]
0	0xbc0beb6f	-0.008540018
1	0x3da78df8	0.08181375
2	0x3d103f25	0.03521647
3	0xbd8fa5f6	-0.070140764
4	0xbd19ddbf	-0.03756499
5	0xbcfc36e0	-0.030787885
6	0xbd59bce9	-0.053158674
7	0x3de627d4	0.11238065
8	0x3cf0ab72	0.029378626
9	0xbdb6ccad	-0.089257576
10	0xbc6f350d	-0.014600051
11	0x3bffd538	0.0078074
12	0x3d9e5090	0.0773021
13	0x3d30e233	0.04318447
14	0x3a441bae	0.0007480931
15	0xb9fb9537	-0.00047985624
16	0xbd2ec0e8	-0.04266444
17	0x3c0e3a85	0.008680944
18	0xbbb29a84	-0.0054505486
19	0xbd9f4aef	-0.07777964
20	0xbd229058	-0.03968844
21	0xbcb1f625	-0.021723816
22	0xbd13f04a	-0.03611783
23	0x3d925751	0.071455605
24	0xbdb8b1a2	-0.09018256
25	0x3dc88c8d	0.09792433
26	0xbcef199a	-0.029187012
27	0xbcdcfeb9	-0.02697693
28	0xbd2358a5	-0.03987946
29	0x3d308f92	0.04310567
30	0xbb371c44	-0.0027940432
31	0x3c950e18	0.018195197
32	0x3bb22950	0.0054370537
33	0x3da65a51	0.08122695
34	0xb95ae9bb	-0.00020877171
35	0x3d80e4df	0.06293654
36	0xbcc495e1	-0.02399725
37	0xbd067620	-0.032827497
38	0xbd9daac3	-0.07698586
39	0xbd7b175a	-0.061301567
40	0xbd646dc1	-0.055768732
41	0x3d90db7e	0.07073115
42	0x3bf3df01	0.0074423556
43	0x3d614c66	0.0550045
44	0x3cecfc52	0.02892891
45	0xbce2d9c9	-0.027691739
46	0x3d0300b5	0.031983096
47	0x3d801eaf	0.062558524
48	0xbc81e3e8	-0.015855744
49	0xbcb9cbeb	-0.022680243
50	0xbda0e450	-0.07856047
51	0xbdb0e0dd	-0.08636639
52	0x3d9cf0f5	0.076631464
53	0x3daf1ed1	0.085508
54	0x3ca289b2	0.019841049
55	0xbd636faa	-0.055526413
56	0xbd38bf34	-0.04510422
57	0x3d10b8d2	0.03533251
58	0xba9014d2	-0.0010992533
59	0x3dbde782	0.09272672
60	0x3d22a386	0.03970673
61	0xbbae0c3e	-0.005311518
62	0xbc858b49	-0.016301768
63	0xbc24d288	-0.01005996

fc3.weight f4 [2, 64]
0	0xbd9939eb	-0.0748175
1	0x3d0b5cf9	0.034024213
2	0x3e033548	0.12813294
3	0x3dba3099	0.090913005
4	0xbd8de1e0	-0.06927848
5	0xbe0392d6	-0.12848982
6	0x3e19ce74	0.15020162
7	0xbdf667c7	-0.12031513
8	0xbd7593a1	-0.059955243
9	0x3d77ce19	0.060499284
10	0x3db8a3a6	0.090155885
11	0xbded6fea	-0.115936115
12	0x3e087c3c	0.13328642
13	0xbce83b19	-0.028348492
14	0xbdefe5b2	-0.11713733
15	0xbdc78d0e	-0.09743701
16	0x3d767216	0.060167395
17	0x3e0c1e3e	0.13683411
18	0x3da10995	0.07863156
19	0x3dc894fe	0.09794043
20	0x3d73378c	0.059379146
21	0x3d6e0069	0.05810586
22	0xbd3f4f87	-0.046706703
23	0xbda6d16f	-0.08145415
24	0x3dd84098	0.10559195
25	0x3d33af0c	0.04386811
26	0xbd24eef0	-0.04026693
27	0x3e1da2bc	0.1539411
28	0x3b1b3f1c	0.002368874
29	0xbda6bd4c	-0.08141574
30	0x3e0abc9f	0.13548516
31	0xbd8618ab	-0.06547674
32	0xbe08d099	-0.13360824
33	0xbe19151d	-0.1494946
34	0x3d999942	0.07499935
35	0x3d95e1b3	0.07318439
36	0x3df2f416	0.11862962
37	0x3b3054e9	0.002690608
38	0xbd7c3d67	-0.061581995
39	0x3caa087c	0.020755999
40	0xbe07bfbf	-0.13256739
41	0xbcc7afd1	-0.024375828
42	0xbd8a0a07	-0.06740194
43	0xbc875783	-0.016521221
44	0xbc773c4e	-0.015090061
45	0x3ca61af6	0.020276528
46	0x3ccea52e	0.025225248
47	0x3d5878a9	0.052849445
48	0x3d92c664	0.07166746
49	0x3d056ab8	0.032572478
50	0x3d7b4c50	0.061352074
51	0xbd96f1ae	-0.073703155
52	0xbd451909	-0.04811958
53	0xbd78d80b	-0.06075291
54	0xbdb1f484	-0.08689216
55	0x3e187047	0.1488658
56	0xbe0ffa33	-0.14060287
57	0x3da69906	0.08134656
58	0xbd55a763	-0.052161586
59	0x3d1e4efb	0.03864954
60	0x3d87c66d	0.066296436
61	0x3e171791	0.14755084
62	0x3d9df293	0.07712283
63	0x3dac1d8d	0.08404074
64	0x3e0f2048	0.13977158
65	0xbdca5605	-0.09879688
66	0x3d20879a	0.03919182
67	0x3ccc8d03	0.024969583
68	0x3dcd7fce	0.100341424
69	0x3ca01c61	0.019544782
70	0xbc835951	-0.0160338
71	0xbc229492	-0.009923117
72	0xbe0a2b20	-0.13493013
73	0xbd2ae18b	-0.041719
74	0xbc198be2	-0.00937173
75	0xbbab67ba	-0.005230871
76	0xbdf37cb0	-0.11889017
77	0x3dbc81f4	0.09204474
78	0x3dcd61ad	0.10028396
79	0xbdbed316	-0.09317605
80	0xbcd81bb7	-0.026380403
81	0xbe1510ec	-0.14557236
82	0xbd998b10	-0.07497227
83	0xbcdd1519	-0.0269876
84	0x3d9cc576	0.0765485
85	0xbe136e1a	-0.14397469
86	0x3d72e85a	0.05930362
87	0x3e04193a	0.12900248
88	0x3d4fd383	0.050738823
89	0xbdfacc2e	-0.122459754
90	0x3d975339	0.0738892
91	0x3da6937a	0.08133598
92	0x3dfba9c5	0.1228824
93	0x3d800502	0.06250955
94	0xbd6eaee6	-0.058272265
95	0x3d957a79	0.072987504
96	0xbd112735	-0.03543778
97	0xbd61a843	-0.055092108
98	0x3cd44820	0.025913298
99	0xbc804219	-0.015656518
100	0x3dc3a1c6	0.0955234
101	0x3d8c93fc	0.06864163
102	0x3d5c993a	0.053857066
103	0xbd671a1f	-0.056421395
104	0x3dd0df43	0.10198834
105	0x3d0e133d	0.034686316
106	0x3c5e74ce	0.013577653
107	0x3dc37873	0.09544458
108	0x3c8b52d5	0.01700727
109	0x3df4df3a	0.119566396
110	0xbdac6278	-0.08417219
111	0xbcd9e379	-0.026597725
112	0xbb8ec7fd	-0.0043573366
113	0x3dd12598	0.102122486
114	0x3e0a191a	0.13486138
115	0xbd699254	-0.057024315
116	0x3da42190	0.08014214
117	0x3d2b2fe3	0.041793715
118	0x3db54d9a	0.08852692
119	0xbc8aa6da	-0.016925264
120	0xbb4d2de8	-0.003130788
121	0xbe183b0d	-0.14866276
122	0xbd8f18de	-0.06987165
123	0x3e0b2daa	0.13591638
124	0xb94ccab8	-0.00019530475
125	0xbca98656	-0.02069394
126	0xbdaac2a2	-0.083379045
127	0x3e17a6d1	0.14809729

fc3.bias f4 [2]
0	0x3da38633	0.07984581
1	0xbdafecd0	-0.0859009
