pytorch/outputs/model.pt (torch, 79348 bytes, 6 tensors)

fc1.weight f4 [128, 84]
0.056032464 0.10645658 -0.060165204 -0.039307848 -0.01807464 0.026892258 0.045494888 -0.1145139
0.09399646 0.0042556175 -0.06463013 -0.08843145 0.028919028 -0.07086932 -0.06496955 -0.028856343
-0.06552561 -0.009884865 -0.082605906 -0.07254013 0.042380776 0.019467378 0.09464657 -0.105304055
0.09813689 0.027303493 -0.0006097378 -0.060604278 -0.082128264 0.045450497 -0.026253372 -0.061678227
0.08737237 -0.052951753 0.033664674 -0.040840797 0.10087514 0.066543385 -0.059875295 -0.10835169
-0.05985233 -0.11439161 -0.090241976 -0.05951493 -0.08656516 -0.12447392 0.09382331 0.010651888
-0.068131596 0.088375546 0.00041582427 -0.11192449 0.016281359 0.08671425 -0.0014240894 -0.10195851
0.019596944 -0.014924303 -0.0022951767 0.07465508 0.08473292 0.09234255 -0.098614834 -0.08430728
0.024124509 -0.003092224 -0.0167641 0.009504666 0.084074706 0.08802451 -0.085340254 -0.066870555
0.054477006 -0.08027825 0.08421659 -0.08805117 0.018930424 0.07715871 0.11342064 -0.10382132
0.094507255 0.08959934 0.055690818 0.031263966 0.032226935 0.059970558 0.05617987 0.06396707
-0.0040230937 0.039403263 0.052645087 0.049708467 0.04732849 0.052818116 0.0155606065 0.087494195
-0.031062512 0.08668262 -0.10402446 -0.045377403 -0.057652444 -0.016383214 -0.050304297 0.01701092
0.032147422 -0.038707837 -0.030563071 -0.10775553 -0.0033458099 0.024822086 -0.048501544 0.012494819
0.05950919 -0.08327945 0.0023132556 -0.08579553 -0.11091999 -0.06559235 -0.091640085 -0.11003976
-0.03301126 0.09415723 0.0057718605 0.033427097 -0.013067214 -0.09215515 -0.10746534 -0.02480705
-0.0019417707 0.042370826 -0.0063463887 0.06840267 0.04032765 0.033971515 -0.031670656 -0.015459943
0.032078713 0.005341241 -0.04574255 0.024793914 0.061386388 0.0044731377 -0.08910824 -0.06046784
-0.047708716 -0.023707438 0.008052189 -0.007851013 0.03512197 -0.06836402 0.0020468468 0.090271294
0.042223115 0.06800737 -0.04230367 -0.024804905 -0.10830198 -0.0999451 -0.093358465 0.019510027
-0.104700714 -0.031066872 -0.09998608 0.011330797 0.06889984 -0.022199653 -0.1069827 -0.07446817
0.083983466 0.010648693 0.08467052 -0.05219354 -0.01862023 0.01997985 0.03166291 -0.031146415
0.06706183 -0.04566369 0.09210012 0.007436584 -0.049797338 -0.042665675 0.07715929 -0.0012877709
0.09847683 -0.0351357 0.07877078 0.04671373 0.11989326 -0.022507945 0.12382785 -0.01760348
0.108659744 -0.015389818 -0.047000993 0.005015164 -0.047880176 -0.06873958 0.069929786 -0.041142125
0.009816049 0.020818949 0.01387167 0.054906707 0.039324824 -0.09612159 -0.004633786 -0.0907543
-0.03519501 0.022559237 0.09909813 0.009865554 0.06354549 -0.00512466 -0.08420893 -0.06456318
0.11045086 0.048064698 -0.006908927 0.09209324 0.060055092 0.11341752 0.052419003 0.027773187
-0.05332903 0.035387613 0.04061309 -0.0018404712 -0.08200373 0.112967946 0.109483905 -0.030907704
0.014697544 -0.04648498 -0.01777323 0.06155815 -0.07701091 0.011241314 0.02612051 -0.043187756
-0.052819785 0.12924857 -0.051677525 0.12742074 0.016984947 -0.060905606 0.0065254862 -0.043847274
0.0704914 0.10235765 0.08578727 0.022691319 -0.06442736 -0.09051626 0.07121772 0.07346704
00000000: 4c82 653d e805 da3d ca6f 76bd 4401 21bd
00000010: 4411 94bc 274d dc3c d958 3a3d 4386 eabd
00000020: 3781 c03d b572 8b3b cd5c 84bd 8c1b b5bd
00000030: 99e7 ec3c ef23 91bd c10e 85bd 2364 ecbc
00000040: 4b32 86bd 21f4 21bc 492d a9bd eb8f 94bd
00000050: 7797 2d3d 0d7a 9f3c 10d6 c13d a7a9 d7bd
00000060: fefb c83d 93ab df3c d0d6 1fba 313c 78bd
00000070: dd32 a8bd 4d2a 3a3d 5011 d7bc 4fa2 7cbd
00000080: 49f0 b23d f0e3 58bd f8e3 093d ae48 27bd
00000090: a097 ce3d e647 883d cc3f 75bd 7ee7 ddbd
000000a0: b727 75bd 2646 eabd c9d0 b8bd edc5 73bd
000000b0: 1349 b1bd 2fec febd 7026 c03d 4285 2e3c
000000c0: 9488 8bbd 3dfe b43d fd02 da39 ab38 e5bd
000000d0: 7c60 853c 3e97 b13d 83a8 baba a0cf d0bd
000000e0: c589 a03c 1085 74bc ad6a 16bb c3e4 983d
000000f0: 7488 ad3d 171e bd3d 93f6 c9bd 4ca9 acbd
00000100: c3a0 c53c e9a6 4abb de54 89bc 75b9 1b3c
00000110: 5c2f ac3d 3246 b43d dfc6 aebd 6ef3 88bd
00000120: 4823 5f3d ec68 a4bd bf79 ac3d 2c54 b4bd
00000130: fa13 9b3c 6305 9e3d 1549 e83d 46a0 d4bd
00000140: 058d c13d dc7f b73d 0e1c 643d a50e 003d
00000150: 6400 043d b0a3 753d dd1c 663d 2b01 833d
00000160: 28d4 83bb 5165 213d 60a2 573d 1b9b 4b3d
00000170: 85db 413d cf57 583d eaf1 7e3c 2830 b33d
00000180: cf76 febc a886 b13d c70a d5bd a8dd 39bd
00000190: f824 6cbd 1736 86bc e10b 4ebd 7c5a 8b3c
000001a0: 04ad 033d 1c8c 1ebd 685f fabc eeae dcbd
000001b0: 6045 5bbb b057 cb3c 8ea9 46bd 12b7 4c3c
000001c0: e9bf 733d 6b8e aabd fd99 173b 91b5 afbd
000001d0: 052a e3bd 4855 86bd ccad bbbd 875c e1bd
000001e0: d136 07bd 81d5 c03d e021 bd3b daea 083d
000001f0: de17 56bc d7bb bcbd ca16 dcbd 2838 cbbc
00000200: 0383 feba 088d 2d3d 5ef5 cfbb b316 8c3d
00000210: 9b2e 253d b725 0b3d 17b9 01bd b34b 7dbc
00000220: f864 033d 9405 af3b 8a5c 3bbd 9b1c cb3c
00000230: 4b70 7b3d 6693 923b 627e b6bd 20ad 77bd
00000240: 376a 43bd 1a36 c2bc 54ed 033c 89a1 00bc
00000250: 0edc 0f3d 6f02 8cbd 6424 063b 28e0 b83d
00000260: 25f2 2c3d 7347 8b3d 9d46 2dbd a833 cbbc
00000270: 6ecd ddbd 04b0 ccbd b932 bfbd 7ed3 9f3c
00000280: 546d d6bd f47f febc 80c5 ccbd cfa4 393c
00000290: 5c1b 8d3d 0cdc b5bc bf19 dbbd c582 98bd
000002a0: 86ff ab3d db77 2e3c bd67 ad3d e5c8 55bd
000002b0: 7489 98bc c8ac a33c f8b0 013d c426 ffbc
000002c0: b657 893d d909 3bbd fd9e bc3d 97ae f33b
000002d0: 4bf8 4bbd 34c2 2ebd b105 9e3d 6cca a8ba
000002e0: 38ae c93d 74ea 0fbd 9352 a13d e556 3f3d
000002f0: 998a f53d 9562 b8bc 7599 fd3d 2c35 90bc
00000300: 0089 de3d 9325 7cbc 1d84 40bd 3f56 a43b
00000310: 011e 44bd 56c7 8cbd 5937 8f3d a584 28bd
00000320: 7ed3 203c 808c aa3c 0046 633c dbe5 603d
00000330: 1113 213d 65db c4bd 04d7 97bb 64dd b9bd
00000340: a528 10bd 26ce b83c f6f3 ca3d 22a3 213c
00000350: 2324 823d c4ec a7bb bb75 acbd b339 84bd
00000360: 0f34 e23d 7ddf 443d 4864 e2bb 619b bc3d
00000370: 54fc 753d 7247 e83d 4fb5 563d 9884 e33c
00000380: 8a6f 5abd 9af2 103d e959 263d f73b f1ba
00000390: 92f1 a7bd bd5b e73d 1939 e03d 2732 fdbc
000003a0: f8cd 703c 0967 3ebd 2a99 91bc 6624 7c3d
000003b0: e5b7 9dbd 7d2d 383c aefa d53c a5e5 30bd
000003c0: 8f59 58bd bd59 043e d0ab 53bd 957a 023e
000003d0: 0424 8b3c 2878 79bd bfd3 d53b 3399 33bd
000003e0: cc5d 903d e3a0 d13d 3cb1 af3d 25e3 b93c
000003f0: 7ef2 83bd 9760 b9bd 99da 913d e375 963d

fc1.bias f4 [128]
-0.104182735 -0.10966226 -0.005894528 -0.03512961 -0.089016944 0.05468674 0.11921829 -0.0051161814
-0.0991676 0.057443384 -0.015141212 0.08639934 0.08242517 -0.03681756 0.00031589705 0.06345312
-0.022843167 0.033319987 0.06244338 0.037688307 0.017224457 0.116060615 -0.095321305 0.062379394
0.08664066 -0.08024701 -0.1036652 -0.04136812 0.063963294 -0.0040257224 -0.075689554 0.058129884
-0.0034537402 -0.011520765 0.033992168 -0.049545694 -0.082066774 0.03648717 0.099117495 -0.084712386
-0.0043372917 -0.0021061716 0.057597145 -0.07423207 -0.034272958 0.05396503 0.042364545 -0.05489331
-0.06445136 0.0667459 0.050731845 -0.10331681 0.027090995 0.011065682 -0.0056398315 0.0894788
-0.0045380243 0.08323608 0.10569149 0.0042405254 -0.04581188 0.06543108 -0.011483031 0.014148429
-0.08985331 -0.044573013 -0.049364965 0.033309203 0.08529905 -0.010235059 0.035872005 -0.09127483
0.07305001 -0.07331076 -0.087420106 -0.052567855 -0.06718218 0.09055128 0.038582083 -0.008264659
0.003759664 0.010075647 0.027659345 -0.016778143 -0.05057458 0.008195378 -0.00014162611 -0.073907934
0.04223372 -0.06501604 -0.04361028 -0.02866879 -0.08113102 0.06886859 0.06772679 0.08953817
0.120579824 0.009786102 0.013868081 -0.05925128 -0.11328751 -0.030307032 0.07066924 0.04638501
-0.08524254 -0.018860089 0.08798926 0.084794186 0.01323235 -0.08116239 0.06672517 0.09727031
-0.04214817 -0.082333736 -0.024841217 -0.11275783 0.052833863 -0.03764878 0.04471471 0.02512685
-0.06587953 0.06316871 0.10769779 0.06826665 -0.0317399 0.066842444 -0.06302325 -0.009948013
00000000: c25d d5bd 9b96 e0bd e226 c1bb 11e4 0fbd
00000010: 844e b6bd 34ff 5f3d b828 f43d a4a5 a7bb
00000020: 6218 cbbd c149 6b3d d912 78bc 23f2 b03d
00000030: 87ce a83d 03ce 16bd fc9e a539 b6f3 813d
00000040: 9821 bbbc 8a7a 083d a1c4 7f3d 0e5f 1a3d
00000050: 4e1a 8d3c 30b1 ed3d d137 c3bd 8981 7f3d
00000060: a970 b13d 8b58 a4bd 6c4e d4bd 9e71 29bd
00000070: 30ff 823d 35ea 83bb 2003 9bbd 9a19 6e3d
00000080: 2558 62bb 97c1 3cbc 5f3b 0b3d 6df0 4abd
00000090: a012 a8bd 9273 153d 1dfe ca3d b07d adbd
000000a0: d71f 8ebb b207 0abb fcea 6b3d fc06 98bd
000000b0: cd61 0cbd 6f0a 5d3d 7286 2d3d cfd7 60bd
000000c0: 13ff 83bd 13b2 883d 32cc 4f3d c497 d3bd
000000d0: efed dd3c d64c 353c 56ce b8bb a940 b73d
000000e0: b5b3 94bb ae77 aa3d c874 d83d 1bf4 8a3b
000000f0: 3da5 3bbd bb00 863d 5323 3cbc d0ce 673c
00000100: 0305 b8bd 3192 36bd eb32 4abd 3b6f 083d
00000110: 45b1 ae3d f3b0 27bc 86ee 123d 4cee babd
00000120: 3e9b 953d f423 96bd 5009 b3bd 6451 57bd
00000130: d096 89bd f372 b93d 3f08 1e3d 7e68 07bc
00000140: b264 763b 5414 253c da95 e23c 5172 89bc
00000150: 4a27 4fbd e845 063c 7881 14b9 0b5d 97bd
00000160: 44fd 2c3d 2127 85bd b1a0 32bd cfda eabc
00000170: 0528 a6bd fa0a 8d3d 58b4 8a3d ca5f b73d
00000180: 8ef2 f63d e355 203c f336 633c 78b1 72bd
00000190: 4803 e8bd 7446 f8bc 09bb 903d 35fe 3d3d
000001a0: a493 aebd 7980 9abc b733 b43d 93a8 ad3d
000001b0: 80cc 583c 7838 a6bd 35a7 883d a835 c73d
000001c0: 8fa3 2cbd 979e a8bd cf7f cbbc 94ed e6bd
000001d0: 5268 583d 9b35 1abd c626 373d d3d6 cd3c
000001e0: d9eb 86bd 995e 813d a990 dc3d 63cf 8b3d
000001f0: b301 02bd b1e4 883d 5512 81bd fefc 22bc

fc2.weight f4 [64, 128]
-0.11009202 -0.052675843 0.033844605 -0.057320707 0.036314312 0.0048780795 0.022616532 -0.00052002794
-0.093728036 0.08014066 -0.09441707 0.023067292 0.052324176 -0.035547916 -0.037251912 -0.029013235
0.021755623 0.0026412543 0.015109811 0.002837609 -0.028991533 -0.027725378 -0.030298725 -0.0012810068
0.068520926 -0.00082730263 0.06678082 -0.021262527 -0.04236717 -0.071086854 -0.09496428 0.040409748
1.7472194e-06 -0.03042612 -0.076547965 0.012965793 -0.012295086 0.08832431 0.044215303 -0.041320167
-0.027456025 -0.034941316 -0.09169526 -0.057662096 0.024455309 -0.040357232 -0.0052771475 -0.04419976
-0.027299726 0.022642452 -0.061806496 -0.033168674 0.09967064 0.10761382 -0.082024984 -0.111181065
0.027524557 -0.02477644 -0.08642222 0.034117002 -0.0058923485 0.07539677 -0.0506291 -0.022810986
-0.098589234 0.019973686 -0.07983389 0.05583939 0.048120335 -0.08098133 0.060203 -0.034977086
0.02951359 0.054471172 -0.11496793 0.030754417 0.02410781 0.055825416 0.020337347 -0.044347614
0.021605065 0.09855765 0.10541553 -0.046094913 -0.0814405 0.045811284 -0.058453213 -0.051629536
-0.007096396 0.08896372 -0.07932291 -0.057064407 0.10275003 -0.021265186 -0.0014573258 0.07773327
0.07751805 -0.033189695 0.04725614 0.030547403 -0.04062848 -0.055846136 -0.09454334 -0.031523958
0.06078915 0.06349657 0.072162636 -0.08269278 -0.053793263 0.12214853 -0.015245166 -0.1238259
-0.013616349 -0.024023823 -0.034032892 -0.014883083 -0.09795644 0.027705504 0.054123674 0.024114316
0.04211196 -0.018413663 -0.050061148 0.05210346 0.06103659 0.07546876 0.05457411 -0.06808764
0.056877036 0.026265789 -0.08058169 -0.028722119 0.022923281 -0.08808803 -0.054384615 0.015831959
-0.025665734 -0.04607153 0.018558659 -0.027611738 -0.04065973 0.035877198 0.073149234 0.0823843
-0.010507399 -0.039519075 0.06997413 0.026186679 -0.022309307 -0.06725834 0.005960081 -0.057083774
0.06203332 -0.026709259 0.08814524 0.027482843 -0.077279694 -0.051216997 -0.042461958 -0.06135309
0.081283875 0.046596438 -0.01551454 0.07501169 0.014624809 -0.078865305 -0.03472448 -0.036253665
-0.04341608 -0.071072005 0.0071249246 0.03110039 -0.048043486 0.020947142 -0.067245334 -0.03019671
0.05138317 -0.07308993 0.075960055 0.06748678 0.0020284962 -0.031996053 -0.060676582 0.06188763
0.00085759355 -0.05510749 0.023725187 -0.016425364 0.06436591 0.02887469 0.0052787345 0.071510166
-0.01261942 0.0009034177 0.012991113 0.053091206 -0.045283068 -0.015941128 0.080707274 0.076346055
0.011714453 -0.08215072 -0.06319152 0.07697596 -0.07310194 0.01056709 -0.010253706 -0.072388284
0.019133983 0.073717326 0.004287546 -0.06570338 0.041820705 0.06500026 -0.043956622 0.04010403
-0.03594948 -0.012304014 -0.08415521 0.06278618 0.037198428 0.0020278746 -0.07283726 0.06285823
-0.083482355 0.074824624 -0.050569188 -0.038087413 0.064537674 -0.008034232 -0.011092787 -0.010671003
-0.072277784 0.079041526 -0.060228467 0.07095155 -0.046705175 -0.0346936 0.04946136 0.06291303
-0.08607813 0.02408154 -0.04952277 -0.07357847 -0.051618762 -0.06214321 0.03186468 -0.05830241
0.049367037 -0.010400325 -0.036077764 -0.03307888 0.041600794 0.05920178 0.07164326 0.032764673
00000000: ed77 e1bd a0c2 57bd a4a0 0a3d 1ec9 6abd
00000010: 51be 143d 4cd8 9f3b 4e46 b93c 7c52 08ba
00000020: 7cf4 bfbd c920 a43d bd5d c1bd 9ef7 bc3c
00000030: e051 563d b19a 11bd 7695 18bd 2aad edbc
00000040: d938 b23c e518 2d3b 248f 773c 2ef7 393b
00000050: a77f edbc 5520 e3bc 0835 f8bc 75e7 a7ba
00000060: b354 8c3d 57df 58ba 62c4 883d c02e aebc
00000070: 3389 2dbd fc95 91bd a27c c2bd b184 253d
00000080: 0082 ea35 3340 f9bc 2ec5 9cbd 7a6e 543c
00000090: 5471 49bc 60e3 b43d 1b1b 353d 563f 29bd
000000a0: 75eb e0bc a01e 0fbd b9ca bbbd 172f 6cbd
000000b0: 8056 c83c a04d 25bd eceb acbb cf0a 35bd
000000c0: ada3 dfbc aa7c b93c cf28 7dbd e0db 07bd
000000d0: 1f20 cc3d a264 dc3d b7fc a7bd e6b2 e3bd
000000e0: 2e7b e13c f6f7 cabc 22fe b0bd 45be 0b3d
000000f0: 9a14 c1bb 9f69 9a3d 7660 4fbd 1bde babc
00000100: 27e9 c9bd db9f a33c f37f a3bd d8b7 643d
00000110: d419 453d 8ad9 a5bd 6c97 763d 2244 0fbd
00000120: 7cc6 f13c 2a1d 5f3d 4e74 ebbd b0f0 fb3c
00000130: be7d c53c 31a9 643d 829a a63c d8a5 35bd
00000140: 1bfd b03c 98d8 c93d 19e4 d73d 05ce 3cbd
00000150: 47ca a6bd 9da4 3b3d a36c 6fbd 7e79 53bd
00000160: e288 e8bb 9c32 b63d 0d74 a2bd 5ebc 69bd
00000170: 9c6e d23d 5434 aebc bd03 bfba 9f32 9f3d
00000180: c9c1 9e3d ebf1 07bd a78f 413d 8c3e fa3c
00000190: 0d6a 26bd ebbe 64bd f09f c1bd 441f 01bd
000001a0: 0bfe 783d 7d0a 823d 01ca 933d d55a a9bd
000001b0: 5356 5cbd 0229 fa3d dcc6 79bc 6f98 fdbd
000001c0: 1b17 5fbc 9ccd c4bc 1366 0bbd 2dd8 73bc
000001d0: 639d c8bd a7f6 e23c c9b0 5d3d 638b c53c
000001e0: 977d 2c3d 40d8 96bc eb0c 4dbd 706a 553d
000001f0: 8101 7a3d 5e8f 9a3d 1a89 5f3d 8871 8bbd
00000200: e5f7 683d 5a2b d73c 0308 a5bd a64a ebbc
00000210: 9bc9 bb3c 7f67 b4bd 67c2 5ebd 06b2 813c
00000220: f240 d2bc 80b5 3cbd 5408 983c 0332 e2bc
00000230: d18a 26bd f8f3 123d 44cf 953d 1ab9 a83d
00000240: 3a27 2cbc c1de 21bd 994e 8f3d 7285 d63c
00000250: 02c2 b6bc bebe 89bd c84c c33b add0 69bd
00000260: a716 7e3d 60cd dabc 7e85 b43d b323 e13c
00000270: d144 9ebd eac8 51bd 97ec 2dbd 614d 7bbd
00000280: 2978 a63d e8db 3e3d b230 7ebc bb9f 993d
00000290: e59c 6f3c 2284 a1bd 423b 0ebd b97e 14bd
000002a0: 0fd5 31bd 338e 91bd 3378 e93b 3fc6 fe3c
000002b0: 3fc9 44bd 5799 ab3c ecb7 89bd 175f f7bc
000002c0: 2977 523d 2cb0 95bd f290 9b3d 8236 8a3d
000002d0: 85f0 043b 4b0e 03bd 0288 78bd e27d 7d3d
000002e0: 21d0 603a 64b8 61bd 535b c23c 7c8e 86bc
000002f0: 46d2 833d 9d8a ec3c 3cf9 ac3b ec73 923d
00000300: afc1 4ebc 56d3 6c3a add8 543c 2a76 593d
00000310: bd7a 39bd f896 82bc db49 a53d 525b 9c3d
00000320: faed 3f3c a33e a8bd 8e6a 81bd 92a5 9d3d
00000330: 78b6 95bd 9621 2d3c 29ff 27bc 4f40 94bd
00000340: dfbe 9c3c 1cf9 963d 8b7e 8c3b 7e8f 86bd
00000350: 304c 2b3d db1e 853d dc0b 34bd 2044 243d
00000360: c33f 13bd c696 49bc 9159 acbd 0a96 803d
00000370: 615d 183d 17e6 043b b42b 95bd d1bb 803d
00000380: ccf8 aabd a73d 993d a321 4fbd 8c01 1cbd
00000390: 542c 843d 03a2 03bc 85be 35bc 6ed5 2ebc
000003a0: 6006 94bd 86e0 a13d 20b2 76bd 0c4f 913d
000003b0: ed4d 3fbd e01a 0ebd ff97 4a3d 8cd8 803d
000003c0: bb49 b0bd a646 c53c 63d8 4abd 4fb0 96bd
000003d0: 326e 53bd e189 7ebd 8a84 023d 82ce 6ebd
000003e0: 1735 4a3d 2066 2abc 47c6 13bd b87d 07bd
000003f0: 9865 2a3d 917d 723d b4b9 923d 4034 063d

fc2.bias f4 [64]
0.033814132 -0.084997 -0.03318253 0.024674753 -0.017303377 -0.03164579 -0.028455868 0.06459209
-0.07710228 -0.00045380206 -0.06370358 -0.04152609 0.09318781 -0.079354465 0.097438596 0.019345088
-0.011229767 0.061327983 0.027388124 -0.08740244 0.036087755 -0.08117077 -0.017171562 0.10273069
-0.04037068 -0.085912555 0.030153528 0.09527342 -0.05503785 -0.07149955 -0.09218341 0.0015205472
0.0929367 0.009398388 -0.0129548535 -0.07307396 0.047013257 -0.038001075 0.085046 -0.003461194
-0.103216484 -0.0069409274 -0.0006075625 0.10833305 0.053560507 0.005572463 0.03385762 -0.034310617
-0.026348097 0.09160762 -0.01777362 0.0008857824 -0.037863534 -0.021940257 -0.04553647 0.10537222
0.066053964 0.008522214 0.1034297 0.031195257 0.018865976 -0.054149624 -0.017648252 -0.07373666
00000000: b080 0a3d e812 aebd 68ea 07bd b522 ca3c
00000010: d0bf 8dbc 049f 01bd 481c e9bc dc48 843d
00000020: cde7 9dbd 48ec edb9 0677 82bd 4317 2abd
00000030: 40d9 be3d 9884 a2bd e38d c73d 9779 9e3c
00000040: 0ffd 37bc 0d33 7b3d 0f5d e03c 0d00 b3bd
00000050: c1d0 133d dc3c a6bd 60ab 8cbc 7864 d23d
00000060: ba5b 25bd ecf2 afbd 8804 f73c b61e c33d
00000070: 5e6f 61bd 5b6e 92bd a8ca bcbd 194d c73a
00000080: 9955 be3d b2fb 193c 9840 54bc cda7 95bd
00000090: f990 403d 04a7 1bbd 992c ae3d 33d5 62bb
000000a0: 2a63 d3bd b870 e3bb d444 1fba b8dd dd3d
000000b0: 4362 5b3d 3599 b63b 4aae 0a3d 4a89 0cbd
000000c0: f7d7 d7bc c79c bb3d fc99 91bc da33 683a
000000d0: cb16 1bbd 0ebc b3bc 7384 3abd 64cd d73d
000000e0: 4d47 873d c2a0 0b3c f3d2 d33d 328d ff3c
000000f0: d28c 9a3c ffcb 5dbd 1193 90bc 3f03 97bd

fc3.weight f4 [2, 64]
-0.023565104 0.030151725 0.04474348 -0.09826235 -0.00917919 -0.08367451 -0.08958929 -0.09088496
-0.15557088 0.0063735023 -0.02225833 0.0085412115 0.07621659 -0.088094175 0.11191426 -0.097320415
0.01136798 0.06751063 0.012849775 -0.05745253 0.08377334 -0.022046894 0.001205131 -0.06728011
-0.08658192 -0.035083596 -0.08361183 0.08405203 0.15777747 -0.010578486 -0.086159095 0.028559975
-0.032928094 0.0742648 -0.061850596 0.064861625 -0.049487416 0.048311114 0.036506042 0.13495001
0.053751156 0.09688438 -0.00830009 0.05993775 0.15675178 0.100056544 -0.12612681 0.05482378
-0.036963068 0.093124054 0.0972721 -0.07056148 0.10908579 0.049668256 0.00080014265 0.031805806
-0.087215595 -0.15526676 0.12740797 -0.12888844 -0.0065265447 0.04449374 0.040595993 -0.1388459
-0.115237094 -0.017765164 -0.11913673 0.12385192 -0.034797966 0.10246966 -0.10572668 0.04414554
0.123786494 0.12898453 -0.016856963 -0.09059761 -0.08908356 0.010127007 -0.00036022684 0.10961393
-0.010800097 -0.11948653 0.08910365 0.091468275 0.07161314 0.071019724 -0.05370622 0.027895883
0.11594201 0.14509515 0.021405099 -0.0045698225 0.0031635389 0.082200624 0.15840517 0.0963921
0.11390989 -0.05156381 0.065153286 0.134771 -0.11070412 0.13311306 -0.080909975 -0.038944013
0.1370919 -0.03942506 -0.054134756 -0.12625301 -0.019335553 -0.08289723 -0.034041967 0.0134539995
-0.06873599 0.0064383475 -0.08750717 -0.109644294 0.021905912 -0.037780467 0.07363141 -0.05576251
0.14366472 -0.038409144 -0.13464017 0.11877058 0.07798504 0.12996735 -0.114950046 -0.0734878
00000000: 9b0b c1bc c000 f73c f044 373d c53d c9bd
00000010: 5064 16bc 8b5d abbd 977a b7bd e521 babd
00000020: f94d 1fbe d0d8 d03b 1a57 b6bc 70f0 0b3c
00000030: 7217 9c3d b86a b4bd 4e33 e53d ed4f c7bd
00000040: c440 3a3c 0343 8a3d dd87 523c 5853 6bbd
00000050: 5b91 ab3d b09b b4bc 7cf5 9d3a 28ca 89bd
00000060: dd51 b1bd d1b3 0fbd ae3c abbd 7923 ac3d
00000070: 6b90 213e 6351 2dbc 2e74 b0bd 9cf6 e93c
00000080: 9cdf 06bd 2518 983d 0d57 7dbd 2cd6 843d
00000090: 51b3 4abd e0e1 453d 5c87 153d 5630 0a3e
000000a0: 2c2a 5c3d 516b c63d 1afd 07bc 4981 753d
000000b0: 8a83 203e 72ea cc3d 6327 01be e68e 603d
000000c0: 9666 17bd d3b7 be3d 9836 c73d 8a82 90bd
000000d0: 5f68 df3d f170 4b3d aac0 513a ce46 023d
000000e0: 179e b2bd 40fe 1ebe 3c77 023e 55fb 03be
000000f0: a0dc d5bb 113f 363d fc47 263d 9f2d 0ebe
00000100: 6d01 ecbd 4088 91bc f5fd f3bd 13a6 fd3d
00000110: 5088 0ebd 9ddb d13d 3b87 d8bd f4d1 343d
00000120: c683 fd3d 8514 043e 9d17 8abc 3d8b b9bd
00000130: 7171 b6bd bfeb 253c d4dc bcb9 457d e03d
00000140: e4f2 30bc 5bb5 f4bd f97b b63d b853 bb3d
00000150: e9a9 923d ca72 913d 0efb 5bbd e885 e43c
00000160: 0173 ed3d d393 143e bf59 af3c 73be 95bb
00000170: 6053 4f3b cd58 a83d f734 223e 3969 c53d
00000180: 9749 e93d 9334 53bd 166f 853d 6901 0a3e
00000190: d7b8 e2bd ca4e 083e 21b4 a5bd c283 1fbd
000001a0: d261 0c3e 2c7c 21bd 68bc 5dbd 7848 01be
000001b0: 9865 9ebc 06c6 a9bd 976f 0bbd 2a6e 5c3c
000001c0: 74c5 8cbd c6f8 d23b f636 b3bd 308d e0bd
000001d0: 0774 b33c b1bf 1abd 11cc 963d 3b67 64bd
000001e0: d81c 133e e852 1dbd 1ddf 09be fd3d f33d
000001f0: 9fb6 9f3d 2916 053e ee6a ebbd c680 96bd

fc3.bias f4 [2]
-0.08802542 0.0952104
00000000: ac46 b4bd acfd c23d
